models/baby_cry_cnn_mel.pt (torch, 383300 bytes, 20 tensors)

conv1.weight f4 [32, 1, 3, 3]
00000000: 9076 92bc 24b3 3c3d 7a45 233e 181e 1cbd
00000010: d75d a0be 3826 6fbe c7d0 a43e 7087 383e
00000020: 56a4 cabd 7467 82bd b6c5 dfbd b8ea 193d
00000030: 6395 1dbe dec1 3fbd 3035 c43c 90b2 97bd
00000040: b4b0 a1be 00fc e7bc 2692 783e e9de 723e
00000050: 57fd a63e 4c33 8a3d 9f51 b53e 64b7 8dbe
00000060: 9ed5 413e 4e1b 3a3d a06c 58be d05a 75be
00000070: d870 05bd 7444 92be 005f b0bc fa02 efbd
00000080: 8b9e 03be 2674 1dbe adf7 dcbd 7920 a63e
00000090: 6855 8fbe edd9 923e beb2 493e 83d5 46be
000000a0: 0cc0 9dbe 463b 733e af7d 93be 2c70 353e
000000b0: 523f 583e 4049 e53b 1617 89be 60b4 4f3d
000000c0: 4ebe 27be 6158 dd3d e490 8dbe a697 3bbe
000000d0: 67f6 4e3e 9149 893e 1281 193e 55d7 963e
000000e0: 9375 62be 7b34 17be 56c4 c13e dc95 85bd
000000f0: 5b74 9d3e 6e68 b43d bc62 c93d ae85 94be
00000100: 33c9 4a3e 901a cf3c 50da ca3c e839 c43d
00000110: 3e65 0bbe 66da 75be 640d 9bbe fd14 8d3e
00000120: 2658 b4bd 2427 8f3e 1cb1 f43d 0865 90be
00000130: 6058 03be f4d7 a5bd 5cd2 99bd 375b 19be
00000140: 5688 b9bd f609 173e 3db5 77be 16d8 cfbd
00000150: 7954 9c3e 3b94 543d a0d7 20bc a02b 50be
00000160: c859 a43e 4819 373d ce66 97be 84a3 a5bd
00000170: 465a 3ebe 206f 78bd de19 59bd b67b 2d3e
00000180: 7be5 a0be 2b68 25be f830 463d 5c64 81be
00000190: 8a7c c23e 6233 a5be b620 b1bd ec96 ae3d
000001a0: 2eb9 473e c0b3 d53d 07d4 ef3d 6439 943d
000001b0: 1ac2 133e 9cc3 043d d75b 83be 32dc 8cbe
000001c0: f23f 49be b03d e7bd 22e2 7c3e f9f4 163e
000001d0: 3400 96bd f0ea ebbc 50e6 88be d869 79bd
000001e0: 536e 9cbe 5c00 043e 00cb 263e 33b2 90be
000001f0: 6ff4 a3be 893f 843e 6cb8 a7bd 4c44 c23d
00000200: faff 293e 60ff 07bd 1c03 fb3d 7eea 7abe
00000210: b6f1 76be b48e 1fbe 36f3 bbbd d351 89be
00000220: e87f 123d f17f 9b3e f62e 3abe 03de 4e3d
00000230: 5802 95be ecad a2be f8ad 0dbe 4837 453d
00000240: a03c 1c3c 3c0c 2d3d a1c6 9b3e 7767 8e3e
00000250: 7116 46be 7c41 953d ec60 9cbd 0e90 ba3d
00000260: d0d4 e83c 6ea8 25be f79a 8cbe 6624 20be
00000270: 0219 7d3e 4747 01be ecb2 973d fd34 a53e
00000280: 9ada eebb acfa bfbd 16f2 723e 7e80 d7bd
00000290: 0ac1 2c3e f0eb 9c3d 227b 58be 0cfd c3bd
000002a0: d035 c43d c471 abbd 476e 9a3e fc4e dfbd
000002b0: 4020 82be f3fc 893e 0482 ab3d 47f9 10be
000002c0: c309 93be fa13 a9be 5278 bf3e e06e cb3d
000002d0: d6d7 e9bd dfc7 f7bd a6bd 74be dc83 8b3d
000002e0: 6c3e 713b 60a4 61bc 3ed1 1c3e dc82 9ebe
000002f0: 4820 7bbe 30ff a03d 6a90 873e 5873 0d3d
00000300: e3b1 35be 1745 8cbe 4cbc d8bd 70f7 e8bd
00000310: 5a9d 4d3c d321 6fbe f638 163e 4acf acbe
00000320: c232 5a3e 7ea7 96be 1bc3 2a3e 0e41 77be
00000330: 23bb 5cbe f50f 2a3e f85d 0bbe fc7e a6bd
00000340: c497 4fbd a4f9 9cbe c470 96bd f8bf 50be
00000350: 5bc5 0abe 1321 93be d989 1b3d 00de 5dbc
00000360: 5a03 2a3e d590 5cbd 0644 473e b46e a2be
00000370: 136f babd e05d 7c3c 50e6 c73d f965 103e
00000380: 8b2a 3ebe a273 383e ef6c 1abe 109c 9a3c
00000390: d3f3 06be cda9 673d 139d 13be acae f03d
000003a0: e82c a03d 48b2 0fbd 9d5b a53e 091d e2bd
000003b0: 105a bdbc 82fe 6d3e 21c0 91be 4034 ecbc
000003c0: 46a6 dabd d79f 773e 8a86 7e3e 3033 1dbe
000003d0: 4663 0fbe a0e4 fa3d 003d 1b3d 1202 bb3c
000003e0: de49 4c3e 3502 913e b0bc 793e 2bb2 36be
000003f0: 318f 9b3e cd02 733d d267 613e 0a97 0f3e
-0.0178788 0.04606928 0.15944472 -0.038114637 -0.31321594 -0.23354423 0.32190534 0.18020415
-0.09894626 -0.06367388 -0.10926382 0.03757736 -0.15389018 -0.046815746 0.023951143 -0.07407105
-0.31580126 -0.028318405 0.24274501 0.23717846 0.32615158 0.06748065 0.35413834 -0.27678978
0.18929145 0.045436196 -0.21135187 -0.23960423 -0.03257832 -0.2856785 -0.021529675 -0.116704896
-0.12853448 -0.15376338 -0.10789428 0.3244665 -0.27994847 0.2868189 0.19697091 -0.19417386
-0.30810583 0.2375308 -0.28806826 0.17718571 0.21117905 0.0069972575 -0.26775426 0.05070913
-0.16381189 0.108078726 -0.27649605 -0.18319568 0.20211183 0.2681394 0.14990643 0.2946116
-0.22115164 -0.14766113 0.37845105 -0.06522724 0.30752835 0.08808981 0.09833285 -0.2900824
0.19803314 0.02528122 0.024762303 0.09581357 -0.1361284 -0.24009094 -0.30283654 0.27555075
-0.088058755 0.2795955 0.119478434 -0.2820208 -0.12826681 -0.080978304 -0.07510826 -0.14976202
-0.09059207 0.14749894 -0.2419023 -0.10148637 0.30533198 0.051899176 -0.009817034 -0.20329142
0.32099748 0.044701844 -0.2957062 -0.08087829 -0.18589124 -0.060652852 -0.053003184 0.16941723
-0.3142508 -0.16153018 0.048386544 -0.2527188 0.3798564 -0.32265764 -0.08648817 0.0852488
0.19504234 0.10434675 0.11710363 0.07237509 0.14429513 0.03241311 -0.25656006 -0.27511746
-0.196533 -0.11291063 0.24695638 0.14741887 -0.073242575 -0.02879855 -0.26738214 -0.060891956
-0.3055292 0.12890762 0.16288376 -0.28260955 -0.32022426 0.25829723 -0.081894726 0.09485683
0.16601554 -0.03320253 0.122564524 -0.24503514 -0.24115643 -0.1558178 -0.09177248 -0.2682024
0.035766512 0.3037105 -0.18181977 0.050504696 -0.2910335 -0.31773317 -0.13835895 0.048148423
0.0095359385 0.042247996 0.3042498 0.27813312 -0.19344498 0.07287881 -0.07635674 0.091095075
0.02842179 -0.16177532 -0.2746198 -0.15638885 0.24716571 -0.12624846 0.074071735 0.3226699
-0.007289243 -0.09373984 0.23725161 -0.10522555 0.16870514 0.07662189 -0.21140721 -0.09569749
0.095805764 -0.083713084 0.3016226 -0.10903737 -0.2541523 0.26950797 0.08374408 -0.14157592
-0.28718385 -0.33023053 0.37396485 0.09933257 -0.114181206 -0.12098669 -0.2390047 0.068122596
0.0036810888 -0.0137721 0.15314195 -0.30959213 -0.24524033 0.07861173 0.26477367 0.03453383
-0.1774364 -0.2739646 -0.1058279 -0.1137532 0.012549723 -0.23352747 0.14670166 -0.337519
0.21308425 -0.2942466 0.1667599 -0.2414591 -0.21555762 0.1660765 -0.13610065 -0.08129689
-0.050681844 -0.3065921 -0.07345727 -0.2038573 -0.13551848 -0.2873617 0.03797326 -0.013541698
0.16602841 -0.05384906 0.19459543 -0.31725085 -0.09103217 0.015403241 0.097607255 0.141014
-0.18570916 0.1801286 -0.15080617 0.018873245 -0.13178949 0.05655842 -0.14415388 0.11752066
0.07821065 -0.03508213 0.32296458 -0.11040694 -0.023114234 0.23241618 -0.28466895 -0.028833508
-0.106762454 0.24182068 0.2485601 -0.15351558 -0.14002714 0.12250638 0.03789997 0.022828136
0.19950053 0.28321996 0.24388385 -0.17841403 0.30382684 0.059328843 0.2201226 0.1402246

conv1.bias f4 [32]
00000000: c517 a33c 4c39 fa3d c9c7 753e 0d60 a3be
00000010: cbcf a03e 4f73 53be ef50 b4bc 3c03 7c3e
00000020: 87c0 023e 695a bf3d 726b a8bc 5c29 a33e
00000030: e003 933d ee87 e5bd 970f 913d d400 42be
00000040: f776 9abd 6603 9c3d dedf 8a3e 9355 f2bd
00000050: a686 eebd 023d 4d3e b5f3 983d a5c8 b1bd
00000060: 8f26 803e 6456 7f3e ca2a 6ebe fdb9 99bd
00000070: 5ec6 2b3e 9542 a63d bbb9 5e3d 26d7 98be
0.019908795 0.1221796 0.24001993 -0.31909218 0.31408533 -0.20649455 -0.022011248 0.24610609
0.12768756 0.09343416 -0.020559046 0.31867492 0.071784735 -0.11207567 0.07083052 -0.18945628
-0.07542222 0.07617836 0.27123922 -0.11832728 -0.11646776 0.20042804 0.074683584 -0.08680848
0.25029418 0.24935299 -0.2325851 -0.075061776 0.1677489 0.08118168 0.054376345 -0.29851645

bn1.weight f4 [32]
00000000: ab9e 833f 2a72 7d3f d2f8 803f d3a5 7c3f
00000010: 7f3c 7e3f 3478 7f3f adb2 803f d90d 863f
00000020: 4be3 863f 236d 7c3f 2f90 7c3f 9a08 763f
00000030: 9d38 813f 4ed7 7d3f fe46 7b3f 6ced 7a3f
00000040: 8e76 7b3f 9b9b 7c3f 4853 783f 5a3d 793f
00000050: 8b44 753f f8c0 873f a93d 863f 31da 743f
00000060: b1f4 833f 2c02 823f 0b01 7e3f 9a28 7a3f
00000070: 7bb7 7c3f 1697 773f f92f 7c3f a4a1 7e3f
1.0282797 0.99002326 1.0075934 0.9869053 0.9931106 0.9979279 1.0054528 1.0472976
1.0538114 0.9860403 0.98657507 0.96106875 1.0095402 0.99156654 0.981552 0.9801853
0.98227775 0.98674935 0.9700208 0.9735924 0.95807713 1.0605764 1.0487567 0.95645434
1.0309049 1.0156913 0.9922034 0.97718203 0.9871747 0.96714914 0.985107 0.99465394

bn1.bias f4 [32]
00000000: b753 c43b 0807 b93c d2dd 05bd f914 2cbd
00000010: 7697 b33c ab64 9c3c b720 ef3c c713 c4bd
00000020: 4e3f 30bd a44c 2e3c 059a bfbc 3ecb 543b
00000030: 30fb a6bc c652 15bd 0764 94bd 0fd9 76bc
00000040: 0679 a5bc 90b7 47bd b507 81bb 1367 2dbc
00000050: 9a4c 5d3c cdac 81bd 2d73 07bd 24ec 2abd
00000060: 4fdb 853c 5f90 fdbc 14a7 523d 377d d23b
00000070: 2be6 02bc 7d21 ae3c 3028 2d3d 92d2 c7bc
0.005991425 0.02258636 -0.032682247 -0.04201219 0.021922808 0.019090971 0.029190404 -0.09574085
-0.043029122 0.01063839 -0.023388872 0.0032469775 -0.020383447 -0.036455892 -0.07245641 -0.015066399
-0.02019931 -0.048759043 -0.0039376863 -0.010583657 0.013507033 -0.06331787 -0.033068825 -0.041729107
0.016339926 -0.03095263 0.05142887 0.006423618 -0.007989447 0.021256203 0.042274654 -0.0243924

bn1.running_mean f4 [32]
00000000: e328 ca3c 2b25 fe3d 92f4 703e d817 a2be
00000010: 2129 a13e f107 53be 1e2f d1bc c03a 7a3e
00000020: 9024 033e 215e c53d 48d5 93bc 02d2 a13e
00000030: 6dee 973d ec3b e5bd 932e 8d3d 9e35 3fbe
00000040: bc23 98bd 577b a23d 6822 8c3e dccd f0bd
00000050: e5fb eebd 7634 553e 2b40 9f3d ae37 b0bd
00000060: f14d 803e f42e 823e 63d7 69be 6aa3 94bd
00000070: 89e9 2b3e e9f4 a63d 7bdd 623d 88ee 97be
0.0246777 0.12409433 0.23530796 -0.31658816 0.3147669 -0.20608498 -0.025535163 0.24436474
0.12806916 0.09637094 -0.018046036 0.31605536 0.07418523 -0.1119307 0.06893649 -0.18672797
-0.07428691 0.079336815 0.2737 -0.117580146 -0.11669139 0.20820794 0.07775911 -0.0860437
0.25059465 0.25426447 -0.2283607 -0.07257731 0.16788305 0.08152182 0.055387 -0.29674172

bn1.running_var f4 [32]
00000000: 56dc 253c 8953 563e f02e c63e 755a 7d3d
00000010: 2ac0 b73c bc4c 3c3c b250 0c3f 5179 283c
00000020: fbde 073c 8dce eb3c f471 a63d e13b a13e
00000030: 44d9 da3a 3956 443e 693d c63b 4d93 663b
00000040: 6670 9f3b cd0c 233e 6351 1b3e 060d 8c3c
00000050: 80ab 2c3e d00d 8f3b 969c 3d3c 509b 423d
00000060: 70b7 de3a bd57 393b 0230 e43c 2383 ad3c
00000070: 5865 953c bd04 0e3d ebe7 d93c 2d2c c03b
0.010123333 0.20930304 0.38707685 0.061853845 0.022430498 0.011492904 0.5481063 0.01028283
0.008292909 0.028785015 0.081272036 0.31490996 0.001669683 0.19173516 0.006049801 0.0035183013
0.004865694 0.15922852 0.15167765 0.017096054 0.16862297 0.0043656603 0.0115729775 0.0475114
0.0016991924 0.0028281056 0.027854923 0.021180695 0.018236801 0.034672488 0.026599845 0.005864641

conv2.weight f4 [64, 32, 3, 3]
00000000: 98f1 d43b 3cff c73c 1218 a93c 159b 493d
00000010: 1245 89bc 5e82 ffbc bf52 023d 3b9b 3cbc
00000020: 6d2d 63bd 1e56 8c3c 39a6 b13c 8486 30bc
00000030: ec9d 9bbc d741 963b 2f25 533d 3c4f 10bc
00000040: 06d4 6c3d d7fa 533d dae0 bfbc 81e9 133d
00000050: 61f3 0a3d fac8 e83c 8a09 f13a 7803 8fbb
00000060: 68ea e63b 719e 86bc 56ff 05bd dc2a 07bc
00000070: abde 223d b6c8 b3bc 544b d4bc 4509 4e3d
00000080: 585b 01bd 3f95 233d b82f 853c 0dfe 32bd
00000090: be94 9a3c ee48 883d a3c0 683d cc30 d2bc
000000a0: 8c43 12bc 33c2 593d 37ef 34bd 0770 d23c
000000b0: e206 5cbd 8337 673d 25df 36bd 8896 b0bc
000000c0: 4702 3a3d b016 e4bc 4c27 d6bc 0d15 4e3d
000000d0: 8806 eebc 6c03 553c a6f9 c63c 0837 1c3d
000000e0: c821 d1bc 289a c93b 3e7f c43c be0a edbc
000000f0: 2d77 533d dbf5 ff3b b4af 07bc 069a 3fbd
00000100: db6a 93bc 50ed 7fbb fe71 35bd 00d7 93bd
00000110: 9635 0fbd ea83 2ebd def9 5abd 008c 6eba
00000120: 9685 09bd d8a0 853c 54c4 03bd a0ba e0bb
00000130: c8af 88bd e2f6 b13c c6ae 2abd 483a 02bc
00000140: c8d3 d9bc 87cb 5f3d 0679 95bc c207 a43c
00000150: 5eb2 07bd e22e d9bc 5225 dc3c d855 95bb
00000160: 3611 e1bc 4ab7 903c dd19 3b3d e48b 0a3d
00000170: aa74 d13c ae34 edbc 8b82 713d d260 30bd
00000180: 30a6 603b 2771 02bd c07e 36bd 40da be3a
00000190: 5ae3 d43c f193 5e3d ac9c 0a3c 94ec 47bb
000001a0: 6ec6 8e3c 04b6 14bc b9e9 f4bc 9cee 81bc
000001b0: 647d 9ebc a6b6 5ebd dc55 54bc 9f82 0d3d
000001c0: fc0a d13c 822d 9e3c 845e 45bc b889 e43b
000001d0: d23b 9c3c 655b 6d3d 6fa5 213d 4cab 623c
000001e0: adb0 553d 7a44 ba3c a8d4 e13b e755 283d
000001f0: ae66 4e3d 0f51 093d 9c2f abbc 5e07 41bd
00000200: 54f6 93bc b02e 05bc 8db9 5f3c 8e0d 13bd
00000210: 5129 313d 24d7 fdbc 5aa4 97bc 7457 2cbc
00000220: 1c1f 463d ecf7 583c ba5d a2bc 2495 c6ba
00000230: 5cc3 46bd 8ea9 26bd 1685 973b a328 27bd
00000240: 58f5 e2bc e326 9bbc 08cb 86bb 5ab0 d93c
00000250: 1244 013d dc98 103c 1a74 24bd 3429 b23c
00000260: 2789 1b3d 96ed fd3c 6e54 ef3c 4870 cfbc
00000270: 8a37 ff3c b175 893c 5395 253d 40fe 14ba
00000280: e783 953c 1f3a 4d3d 7d9c 1c3d e2b4 debb
00000290: da51 a03c c75c f9bc 23d3 3bbc dcd9 4abc
000002a0: b610 c13c 3b27 b3bc cc39 aabc c0eb 2fbd
000002b0: bb26 7a3c 5752 223d 514f 1ebd 5ab0 27bd
000002c0: e1b5 1a3d 0fd4 663d 8571 873d 8d1b 633d
000002d0: 8015 9f39 6aa2 343c a48a 263c 68e3 cb3b
000002e0: 7b89 783d 78c6 acbb 879f 0a3d be9a 293d
000002f0: 7451 eebc d788 6c3d 6ba0 b83b c021 babb
00000300: 9182 063d 6e3f e2bb 2a80 0bbd 1164 073d
00000310: e62d 9a3c eb7a 3d3d f21b 9c3c bde8 32bb
00000320: c979 553d 78db 9ebb eb10 aabb 73b8 50bd
00000330: c8d8 d3bb 3cb3 883c 711e 5abd 4753 1b3d
00000340: 3032 253d 381f 2ebd 3061 37bd fc36 933d
00000350: 4799 233d 97ff 143d bc04 f83c 68e1 a43b
00000360: e47c 293c 339d b7ba 5156 303d b6ac 13bd
00000370: 8df1 163d a88b 8f3b 4d93 6a3d b497 943d
00000380: 8d54 6cbd b1d8 2abd 6495 3f3c 8574 f0bc
00000390: 4e38 bf3c 80b0 2c3d de41 fbbc 4ade 3bbd
000003a0: 9a56 f33b 0436 023c c531 1e3d ca19 9e3d
000003b0: b729 5d3d 275c 043d a221 41bc ba1c b93c
000003c0: 3d13 683d 174f b73c bed4 4dbd 5d83 6abd
000003d0: 19b6 0f3d 4642 c93c 5d1a 13bd 7359 b03c
000003e0: b74f 033d 56bb ebbc 6a4a 1f3d 92f4 debc
000003f0: 452a 2b3d 004d c3bb a825 dcbb 34f0 0cbd
0.006498527 0.024413697 0.02064136 0.049220163 -0.016756568 -0.031190094 0.031817194 -0.011511619
-0.055463243 0.017130908 0.021685706 -0.0107742585 -0.018996201 0.0045854854 0.051549133 -0.008807953
0.05781939 0.05175289 -0.023422647 0.03611136 0.03392351 0.028416146 0.0018389684 -0.004364427
0.0070469864 -0.016432973 -0.03271421 -0.008249965 0.039763134 -0.021946292 -0.025914825 0.05030181
-0.031581253 0.039937254 0.016258106 -0.043699313 0.018869754 0.06654535 0.056824338 -0.025658034
-0.008927237 0.05316372 -0.044173446 0.025688184 -0.0537175 0.056449424 -0.0446464 -0.021556154
0.045412328 -0.02784285 -0.026141785 0.050313044 -0.029055849 0.013001304 0.024288964 0.03813842
-0.025528803 0.00615241 0.023986455 -0.028935786 0.051627327 0.0078112907 -0.008281637 -0.046777748
-0.017995289 -0.0039051361 -0.044298165 -0.07218742 -0.034963213 -0.04260627 -0.05346095 -0.0009099841
-0.033574663 0.016312048 -0.032169655 -0.006858185 -0.066741526 0.021724168 -0.041670583 -0.007948466
-0.026590243 0.05463746 -0.018246185 0.02002323 -0.03312909 -0.026511613 0.026873264 -0.0045573525
-0.027474027 0.017665524 0.045678962 0.033824816 0.025568325 -0.028955784 0.058962386 -0.043061085
0.0034278743 -0.03184619 -0.044554472 0.0014560893 0.025987316 0.054340307 0.008460205 -0.0030506002
0.017428603 -0.009076599 -0.029896604 -0.015860848 -0.0193469 -0.054373406 -0.012959924 0.034548398
0.025517933 0.01930881 -0.01204646 0.006974425 0.019071493 0.05794849 0.03946441 0.013834786
0.052170444 0.02273773 0.0068918057 0.041097548 0.05039089 0.03352457 -0.020896725 -0.047126167
-0.018061794 -0.008128807 0.013655079 -0.0359016 0.043252293 -0.030986376 -0.018510986 -0.010518897
0.048369512 0.013242703 -0.019820083 -0.0015150649 -0.048526153 -0.040689044 0.0046240194 -0.04081024
-0.02770488 -0.018939441 -0.0041135587 0.026573349 0.031559058 0.008825507 -0.040149786 0.021748163
0.037972596 0.030997079 0.029215064 -0.025322095 0.031154413 0.016779752 0.04042561 -0.0005683638
0.018251373 0.050104257 0.038235176 -0.0067964653 0.01957028 -0.030439747 -0.011463913 -0.012381043
0.023567539 -0.021869292 -0.020779513 -0.042949438 0.015268023 0.039629307 -0.03864986 -0.040939666
0.03777111 0.05635458 0.06613449 0.055446196 0.00030342862 0.011025051 0.01016489 0.0062221773
0.060677987 -0.0052726828 0.033843543 0.04140734 -0.029091574 0.05774769 0.0056343577 -0.005680293
0.03283936 -0.006904534 -0.034057774 0.033054415 0.018820714 0.0462598 0.019056294 -0.0027299367
0.052118097 -0.00484794 -0.005190005 -0.050957154 -0.0064650513 0.016687028 -0.053251687 0.037921216
0.040331066 -0.04251024 -0.04477042 0.07188222 0.0399411 0.036376562 0.030275695 0.0050317533
0.010344718 -0.0014008641 0.043051068 -0.03605338 0.036851455 0.004380662 0.057269383 0.072554976
-0.05769782 -0.04171056 0.011693332 -0.029352436 0.023342278 0.04216051 -0.030671056 -0.04586629
0.007426095 0.007947449 0.038621683 0.077197626 0.05399486 0.032314446 -0.011787804 0.022596706
0.056658972 0.02237658 -0.050251715 -0.057254184 0.03508577 0.024567734 -0.035913814 0.021527028
0.032058444 -0.028775852 0.038889326 -0.02721623 0.04178836 -0.005960107 -0.006718356 -0.034408763

conv2.bias f4 [64]
00000000: 1f54 39bd 298b 5e3d ec02 683d 32dc b7ba
00000010: f4bd 3f3d 9041 123b 5834 d33c 9f61 093d
00000020: 3ab1 6ebc 1e95 05bd cc68 843d 0ba3 36bd
00000030: c264 71bd db2c 313d 32f0 11bd 4acd ed3c
00000040: 1f03 34bd ffa2 3abd 9a1b eebc a27e 2d3d
00000050: 5687 74bc 452d 98bc 2588 5ebc b850 fbbc
00000060: 2f1e 3c3c 3550 823d aac4 4f3c bfb6 cfbb
00000070: dab1 723c 18f8 eabc 265d 22bd be11 3ebd
00000080: ae4b 1e3d bee1 96bd b408 74bd 1745 60bd
00000090: 61c7 56bd acaf c83c 6576 6b3d 4fc2 013d
000000a0: 42d0 46bd 8c9f 9dbb ae54 4dbd 6851 62bd
000000b0: 6047 193d 46aa 8dbd 7483 533d af81 8dbc
000000c0: b072 1e3c ff03 863c 5e6a b2bc ca8d ed39
000000d0: 9e17 4fbc 3d26 923c 9f35 243d 1c82 28bd
000000e0: 430e 683d 9873 803d c189 e1bc 879f 76bd
000000f0: 84dd 763c ccad 5a3d 24d7 a6bc 651c 053d
-0.04524624 0.054331932 0.05664341 -0.0014027415 0.046812013 0.002231691 0.025781795 0.033540364
-0.014568621 -0.032612912 0.06465301 -0.044589084 -0.05893398 0.043255668 -0.03562946 0.029028554
-0.04394829 -0.0455656 -0.029065896 0.042357095 -0.014924845 -0.018576274 -0.013582264 -0.030678138
0.011481806 0.063629545 0.012681166 -0.0063389237 0.014812911 -0.028682753 -0.039639615 -0.04640364
0.038646393 -0.07367276 -0.059578612 -0.05475339 -0.052436236 0.02449783 0.057485957 0.031679448
-0.048538454 -0.0048102792 -0.050129585 -0.055253416 0.037421584 -0.06917243 0.051639035 -0.017273752
0.009670898 0.016359327 -0.021779235 0.00045309804 -0.012639908 0.017840499 0.0400902 -0.041139707
0.056654226 0.06272048 -0.027531506 -0.06021073 0.015067462 0.053388402 -0.020366259 0.032497782

bn2.weight f4 [64]
00000000: be42 813f 85d6 843f 5249 7c3f 8c0d 743f
00000010: 9dde 853f 41c3 843f fd09 833f d034 703f
00000020: b0a9 773f da38 813f 80be 803f 8a45 783f
00000030: 94ee 793f 7ca4 7e3f 4abb 713f ebcc 803f
00000040: 240e 803f 2d6a 753f 64fa 813f 8ec2 7a3f
00000050: b73b 7d3f 11ef 713f b8ec 733f fdb5 833f
00000060: 74d6 803f 85ac 793f fdee 743f 95e7 7e3f
00000070: bf93 833f 4cce 773f 455c 7c3f 6472 6d3f
00000080: 5be7 803f 0f85 883f 655d 7d3f e466 763f
00000090: 046f 753f f5b7 833f e61c 803f d640 7b3f
000000a0: 13e9 7e3f 0aed 7f3f 3c80 7d3f 60e7 7c3f
000000b0: a1c2 803f 3174 883f ddf1 813f 4916 7d3f
000000c0: e8c1 873f 6005 823f c22d 783f 86d2 823f
000000d0: 224a 7e3f 8f15 843f ad2d 7b3f baf8 813f
000000e0: 2a6e 773f 348e 7f3f e627 803f 4c94 7d3f
000000f0: 2a61 7a3f 9042 823f f5e0 753f 57f1 7a3f
1.0098493 1.0377966 0.9854938 0.9533317 1.0458561 1.0372087 1.0237423 0.93830585
0.967433 1.0095475 1.0058136 0.9698111 0.97629666 0.99469733 0.94426405 1.0062536
1.0004315 0.95865136 1.0154538 0.97953117 0.9891924 0.9450541 0.9528308 1.0289913
1.0065446 0.9752887 0.9567717 0.99572116 1.0279464 0.9679916 0.9857829 0.9275267
1.0070604 1.0665606 0.98970634 0.9625075 0.9587252 1.0290514 1.0008819 0.98145807
0.99574393 0.9997107 0.99023795 0.9879055 1.0059396 1.0660459 1.0151936 0.9886213
1.060605 1.015789 0.9694482 1.0220497 0.9933187 1.0319079 0.9811657 1.015403
0.9665247 0.9982636 1.0012176 0.9905441 0.9780451 1.0176563 0.9604638 0.98024505

bn2.bias f4 [64]
00000000: 4da7 f7bc 14f9 27bd 5d07 69bd eabf cbbd
00000010: 26ec 0abd 1549 4bbd fb78 0b3c f9f9 2abd
00000020: 44fd 60bd 0cc1 35bd 0cad 31bd 082b 35bc
00000030: be1f f9bd 5b6d 66bc 70eb 4dbd 2d60 88bc
00000040: 23ba 16bd 85b1 71bd 705f a6bc 70b8 83bd
00000050: 7d1c c9bc 2bc1 53bd a0cc 58bd 7920 f6bc
00000060: 61ed bcbc 2d05 72bd 2561 e1bc 41cf 25bd
00000070: dfd1 66bc 637b 05bd 6841 34bd d4a0 86bd
00000080: 7fdb 93bb 1ac1 adbc 6f77 0fbd 34c2 16bd
00000090: ed12 39bd 0b15 383c 0f6f 43bd f292 b1bd
000000a0: 2968 1bbd b02a 95bc e3fe 14bc fa1b 1fbd
000000b0: e42a 34bd 2692 df3c f170 65bd da38 debc
000000c0: 112b 46bd 0cd6 3fbd 81c6 23bd fdf7 c3bc
000000d0: 0b99 02be 0842 7dbd bfba 33bd 01ce bfbc
000000e0: 204f 44bd a6ee ffbc 0fcc 5abd cc90 26bd
000000f0: c186 cdbc 588a edbc 65da 21bd 4c33 92bc
-0.030231142 -0.041009024 -0.056891788 -0.09948714 -0.033916615 -0.049630243 0.008512731 -0.0417423
-0.054929033 -0.044373557 -0.04337792 -0.011057623 -0.121642575 -0.014064158 -0.05027336 -0.016647423
-0.036798608 -0.059007186 -0.02030918 -0.06431663 -0.024549717 -0.05169789 -0.05292952 -0.030044781
-0.02306241 -0.059086967 -0.027512142 -0.040480856 -0.014088123 -0.032588374 -0.04400769 -0.06573644
-0.00451225 -0.021210242 -0.03502601 -0.0368063 -0.045184065 0.011235486 -0.047713336 -0.08670606
-0.03794113 -0.018208832 -0.009093973 -0.03884504 -0.043986216 0.027291369 -0.056015912 -0.027126718
-0.048380915 -0.04683499 -0.03998423 -0.023921961 -0.12753694 -0.06183055 -0.043879267 -0.02341366
-0.047927022 -0.031241726 -0.05341726 -0.040665433 -0.02508867 -0.028996632 -0.039514918 -0.017846726

bn2.running_mean f4 [64]
00000000: 788a a43e 908b d93e 44ca c6be d357 383f
00000010: 0c15 85bf a002 17bf 037c 493d 533a cbbe
00000020: 0133 a03e 28b4 98be 58e5 53bd ceb6 c1be
00000030: 2959 493d 56e1 003f 4833 6cbe d559 93be
00000040: 0cf2 ab3e 3846 ccbe f2b5 f43e 38cf 87be
00000050: d8e1 f43e 643d 2bbe ad03 f2be 76e3 24bf
00000060: 28b3 0abe b744 09bf 67e8 90be 1b34 46bf
00000070: fa44 10bf 2f9b 43be a51f 573f 4432 79be
00000080: 81aa af3e 39e9 9ebf 3b65 65bf b88d 55be
00000090: f80a 02bf 2665 bdbe bd07 fc3e 86be 07bf
000000a0: 9951 aa3e f601 abbe 9c79 35be 22ce 20bf
000000b0: a0b7 06bf a6ff dabe 3fa5 053f 6e72 f53e
000000c0: 2250 46bf 409b 993e db27 003f 40a9 1c3b
000000d0: 5817 353f d59c d0be 2d03 a43e 2054 f9bd
000000e0: a1c5 423f 7e8b 28bf 859c 25be 0f5b 1cbe
000000f0: 60d4 b6bd 3b9c 343f 5bf3 7dbe 7efe b8bd
0.32136893 0.4248929 -0.3882619 0.7200901 -1.0397048 -0.5898838 0.049190532 -0.39692935
0.31288913 -0.29824948 -0.05173239 -0.3783478 0.049157295 0.50343835 -0.23066437 -0.28779474
0.33583105 -0.39897323 0.47795063 -0.26525283 0.47828555 -0.16722637 -0.4726843 -0.6440958
-0.13544905 -0.53620476 -0.2830231 -0.77423257 -0.5635525 -0.19102167 0.8403266 -0.24335581
0.34309772 -1.2414924 -0.8960759 -0.20854843 -0.50797987 -0.36991233 0.49224654 -0.5302509
0.3326538 -0.33399934 -0.17722172 -0.62814534 -0.5262394 -0.4277317 0.5220527 0.47938865
-0.7746602 0.3000126 0.50060815 0.0023904592 0.70738745 -0.40744653 0.32033673 -0.12174249
0.7608281 -0.6583785 -0.16172989 -0.15269111 -0.08927226 0.7055089 -0.24799864 -0.090329155

bn2.running_var f4 [64]
00000000: dbdc 943e a40c be3e aeff ae3e 2467 873e
00000010: 1ece 463f 3d76 c83e ab4d 8a3e 6b4f de3e
00000020: c87e 443e 5a17 933e ecbf 563e 378c 873e
00000030: 4e2f 283e f752 133e 1aae be3e ed1d 793e
00000040: 8446 373e 0f99 7f3e fef8 823e dd31 ad3e
00000050: afb0 d83e 391d 053f 8897 7d3e 9c8d a03e
00000060: 0bde 7b3e 0e04 453e 3c55 103e 3a2b 243f
00000070: 9240 e93e b92e 273e 94c1 c83e 4ff7 a23e
00000080: 9447 463e e90a 713f 67a8 2b3f b9a1 d43e
00000090: bad1 da3e ecb3 8f3e 4f08 153f a682 9d3e
000000a0: 1dd9 f03e bf97 bc3e d645 893e c190 923e
000000b0: 48d7 b53e 03e4 873e 6fc3 603e f2f1 863e
000000c0: bcd9 483f 4147 8c3e 532a 2c3e 3a3c 9d3e
000000d0: 0d7f f03e 3724 6c3e 5257 183e afa8 a13e
000000e0: 7536 d33e e25b ca3e d42c 8e3e ac2b 733e
000000f0: 2968 d23e 73d9 903e 7e49 123f 36fc 413e
0.2907475 0.3711902 0.34179443 0.26445878 0.7765826 0.3915271 0.2701238 0.43419966
0.19188988 0.28728753 0.2097165 0.26474163 0.16424295 0.14387117 0.37242204 0.24327822
0.17897993 0.24960731 0.2558059 0.33827105 0.423223 0.51997715 0.24764836 0.3135804
0.24596421 0.19239828 0.14095014 0.6412846 0.45557076 0.16326417 0.39210188 0.31829306
0.19363242 0.9415727 0.67053837 0.41529635 0.42738134 0.28066957 0.582158 0.3076374
0.47040644 0.36834523 0.26811093 0.28626063 0.3551581 0.26541147 0.21949552 0.26356465
0.78457236 0.27398112 0.1681302 0.30710012 0.46971932 0.2306069 0.1487706 0.31574008
0.41252485 0.39523226 0.27768576 0.23747128 0.41095093 0.282909 0.5714339 0.18943867

conv3.weight f4 [128, 64, 3, 3]
00000000: 527c 00bd 8813 893d aab6 9c3c 3074 66bb
00000010: 1d2a af3c f306 073d f360 9abc 8515 81bc
00000020: 16cf 5ebc fc04 09bd d54a f13c c0af 473b
00000030: 0e35 c7bc 63b0 97bc 3dfd 233d 6b7c b4bc
00000040: 36ad 013c 7a79 a33c b83c d23b 0bfc 51bb
00000050: 44bf 113c 9074 98bc 3c0c 2d3c b05f 9a3c
00000060: 50ea 05bc e520 8abc c016 2e3a eefb ad3c
00000070: daa1 22bc 7a79 c53c b69f ac3c 6137 69bb
00000080: 68ac e8bc f55c 133d d63e 3cbd 4b01 82bc
00000090: e07a e83a 0d89 a53c 37b5 0ebd 855f 253d
000000a0: c772 5ebc 6ca9 343c 60dc 953b 9ffa 613d
000000b0: 00c0 083c c0e1 323c 7111 453d a2ef e73c
000000c0: 67dd 153d 2063 e63c e314 dbbc a028 22bd
000000d0: b7e5 303d 0821 fdbc 70eb 723b 689c 42bb
000000e0: 8e91 8d3c a008 51bc c6d1 8f3a 3c29 42bc
000000f0: 1172 283d 83c5 9cbc 7059 f2bc 983c df3b
00000100: b994 203d 10ea f4bc 0ef4 afbc 544e 143c
00000110: 9c35 633c 3068 303c bcc5 24bb 58e6 c3bc
00000120: b35d b7bc 7e06 233c 185f abbb c2fb e23c
00000130: d7c4 ec3c ae06 8e3c aba5 183d 1de7 773c
00000140: 68e0 a9bc 5070 2abb 0c27 bdbb 22fd 913c
00000150: e6dc e93c 8fce 65bc 3875 a03c 4185 133d
00000160: f282 4a3c 18da c33b 5c39 733c f255 563d
00000170: 28d5 b8bb b695 fbbc 8c91 3abc 3e9d 9f3c
00000180: 8876 afbc 9759 c83c b432 633c 8fb5 04bd
00000190: 7658 75bc c8bf 92bb 863e ff3c 3c61 843c
000001a0: 10f1 363b f619 0cbd f289 953d 587c 18bd
000001b0: 5194 0b3d e97d e73c a064 963a d3bf a9bc
000001c0: f1a5 aa3c 98b8 9bbc c455 433c fe4e b4bc
000001d0: 53a6 adbc 5645 e53c 1df7 fc3c 8c4c 433c
000001e0: 9a39 ec3c 36d9 35bd ec84 0bbd 3694 993c
000001f0: b68c edbc ccf7 04bd 9668 10bd da12 733c
00000200: cd88 203d 6ba5 04bd d998 9ebc 6afc be3c
00000210: fe7f b93c d9ff b0bb bcd2 0f3c 00a3 e93a
00000220: 8c47 9fba 2488 783c 5d89 003d 9543 91bc
00000230: 00b8 2d3c 4238 0cbd b5db 1fbd a6d5 f83c
00000240: a0dc ccbb 7724 4f3d b850 d4bc 1017 683b
00000250: e382 0e3d b0e8 86bc ab07 e0bc 6d84 ea3c
00000260: e4fb 343c 004c 533a c85a 35bc a0ec 80bc
00000270: f6b3 debc 5877 993c fc97 54bc 2160 193d
00000280: 96e7 e8bb c0e2 163a 406c 433a 20f8 163c
00000290: c25f 22bd b0cc 163b 39bb bcbc 0076 9e38
000002a0: 2025 393c 18da 0cbd e07d 61bc 463c b53c
000002b0: f96c d63c 28ad d0bb 4013 463a 510d 173c
000002c0: 9453 07bd c00c bfbb 01a8 07bd 76ae bc3c
000002d0: d07d acbc 0358 a7bc 78e3 b8bc d0e6 54bb
000002e0: 2b71 7e3c 004d b53b e027 96bc d826 ae3c
000002f0: 7bdd e2bc 38a2 0dbd 4bd2 99bb de56 28bd
00000300: caf0 bf3c 5e0a 2fbc 453d 0f3d 4211 ef3c
00000310: fd13 5ebc 4070 20ba 7e15 1fbd f32e 6abd
00000320: 00a2 30bb 9084 6a3c 41c5 59bc c082 09ba
00000330: d818 a2bc a521 7a3c 4886 fa3b 281e 23bd
00000340: 42c4 043c 1ec1 d83c 8c22 5cbc 1d23 6cbc
00000350: b3d8 e4bc b64e b7bc b891 e8ba a5ae 0b3d
00000360: 30bd 5fbb 23df 203d 00d4 16b9 9d14 253d
00000370: b10e 85bc 1ac6 c13c 88ca ac3b cfec 4abd
00000380: 8471 0abc a878 e0bc 3c9b acbc de99 03bd
00000390: 7344 07bd cb49 40bd 1841 fb3b a618 fa3c
000003a0: 6ccc e63b 3354 80bc 9d1b 073d 53fe 18bc
000003b0: 13d0 efbc 63cb 03bd eb55 12ba 9b80 febc
000003c0: 4123 123d 02ad 0a3d 50b8 79bb a407 12bd
000003d0: 4fec 923c 5831 ad3b 40f2 17bc 50a6 e13b
000003e0: b096 20bd d083 29bc 26c2 243a 5dd6 0d3d
000003f0: 8297 ff3c 4a0d 853d 88c8 d6bc 2011 1ebc
-0.03136856 0.066931784 0.01913007 -0.0035164468 0.021382386 0.03296561 -0.018845057 -0.015757332
-0.013599178 -0.03345202 0.029454628 0.0030469745 -0.02431729 -0.018516725 0.04003643 -0.022031983
0.007914832 0.019955385 0.0064159296 -0.0032041098 0.008895699 -0.018610269 0.010561999 0.018844455
-0.00817354 -0.016861388 0.0006640963 0.021238293 -0.009926284 0.024105776 0.02107225 -0.0035585987
-0.028402522 0.035977323 -0.045958363 -0.015869757 0.0017736815 0.020206952 -0.03484079 0.040374298
-0.01357717 0.011026721 0.00457339 0.05517065 0.008346558 0.010918081 0.048112337 0.028312508
0.0365881 0.028123438 -0.026743358 -0.039589524 0.043187823 -0.03089954 0.0037066601 -0.0029695276
0.01728132 -0.012758404 0.0010972552 -0.011850651 0.041124407 -0.01913715 -0.029583663 0.0068126433
0.039204333 -0.029896766 -0.021478679 0.009051878 0.013867762 0.010767028 -0.0025142273 -0.023913547
-0.022383546 0.009950278 -0.005229842 0.027707938 0.028902454 0.01733717 0.03726737 0.015130785
-0.020736888 -0.0026006885 -0.005772477 0.017820898 0.028547715 -0.014026298 0.019587144 0.036015753
0.012360321 0.0059769265 0.0148452185 0.052328058 -0.0056406446 -0.030711036 -0.01138724 0.019484159
-0.021418825 0.024456782 0.013867069 -0.03239971 -0.014974704 -0.0044784285 0.031157743 0.016159646
0.002791468 -0.034204446 0.073017016 -0.03722796 0.034076992 0.02825828 0.001147408 -0.020721352
0.02083108 -0.01900892 0.011922304 -0.022010323 -0.021197474 0.027987164 0.030879552 0.011920106
0.02883606 -0.0443966 -0.03406231 0.01874743 -0.02899776 -0.03246288 -0.03525599 0.0148360375
0.039192963 -0.032384317 -0.019359993 0.02331372 0.02264404 -0.005401593 0.00877827 0.0017825067
-0.001215206 0.015169177 0.031381 -0.017732421 0.010602951 -0.03423334 -0.03902789 0.030375313
-0.0062518865 0.050571885 -0.025917396 0.0035414137 0.034792792 -0.016468376 -0.027347406 0.028627599
0.0110463835 0.0008060336 -0.011069007 -0.015737832 -0.027185421 0.018733665 -0.012975689 0.03744519
-0.0071076853 0.0005755834 0.000745479 0.009214431 -0.039642103 0.0023010187 -0.023038493 7.556006e-05
0.011300355 -0.034387678 -0.013762921 0.022123467 0.02617501 -0.006368298 0.0007555969 0.0092194835
-0.03303869 -0.0058303773 -0.033119205 0.023032408 -0.021056086 -0.02042771 -0.022569403 -0.0032486208
0.015529911 0.0055328608 -0.01832956 0.021258757 -0.0276935 -0.034578532 -0.0046942583 -0.041098468
0.023430247 -0.010683624 0.03497054 0.029183034 -0.01355457 -0.0006120242 -0.038838856 -0.05717368
-0.0026952028 0.014313832 -0.013291658 -0.00052456185 -0.019787237 0.015266811 0.007645402 -0.03982368
0.008103432 0.026459273 -0.013435971 -0.0144126685 -0.027935361 -0.0223764 -0.0017743623 0.0341021
-0.0034139864 0.0392753 -0.00014384091 0.04030286 -0.016242357 0.023654032 0.005273167 -0.049542245
-0.008449916 -0.027401283 -0.021070115 -0.03212916 -0.033024263 -0.046945374 0.007667672 0.030529331
0.007043412 -0.01566515 0.03298532 -0.009337979 -0.029274022 -0.032176387 -0.0005582261 -0.031067183
0.035678152 0.0338564 -0.0038104244 -0.035651818 0.017934946 0.0052854232 -0.0092740655 0.006886281
-0.039206207 -0.010346368 0.0006285034 0.03462826 0.031200174 0.06496675 -0.026218668 -0.009647638

conv3.bias f4 [128]
00000000: 9a84 493b 6fcf 0f3d b44d 2abb 6686 36bd
00000010: 3957 a3ba 8e8b 01bd ec6e bbbc f097 5e3c
00000020: 9046 6cbc 79a9 18bb f4cb 2c3d 6fed 9f3c
00000030: a768 8dbc 85cf 92bc bc22 103d 9c67 18bd
00000040: d49d 193d e24b 5b3c 1b0a 173d 4710 4e3b
00000050: 5820 cfbb d730 1e3b bd55 13bb 3ed3 b4ba
00000060: 7636 85bc 1b9a 7fbc 06c5 13bd 5bd2 a2bc
00000070: 104c cbba 3e03 8d3c f256 933c 3ca4 aabc
00000080: bc14 a8bc d232 19bd ff5d 833c 1975 5dbc
00000090: 8058 c2bc def0 673b 8402 043c 9c57 fd3c
000000a0: d313 3c3c e977 44bc a4db 1abc 9254 a6bc
000000b0: e286 b63c 0b6e c1bc 27fd 38bc 4c7f eb3c
000000c0: a151 e43c 66d9 143d 5fa6 133b cb32 6e3c
000000d0: b922 ddbc 29e6 163d 1ab1 153d f128 fbbc
000000e0: 96f2 75bc 571a dcbc 594e 10bd cef3 073c
000000f0: 4a7f e43c 6701 0d3d a045 0cbc 4d1d 153c
00000100: 12f7 4cbc f7e8 1b3d 2794 f43c 6212 34bc
00000110: d877 19bd 0cd2 e53b 762c b43c 5346 e8bc
00000120: 0255 973c 5101 1ebd 720b 1ebd f7eb 06bd
00000130: 08bd 243c 5ff9 afbc 0ec1 1eba e4ac 13bd
00000140: 61a6 10bd 2de1 023d 3cbd 11bd 0382 0cbd
00000150: 9e3a 2bbd 8b27 053d 373c 12bd d7b8 2bbd
00000160: 8752 c93c ca77 3ebc d785 803c 7c9d 05bd
00000170: 5ac1 843c 9d9b 0e3d 3a75 99bc 6531 dcbb
00000180: f9c4 afbc ff48 9d3c d7a3 abbc 0834 28bd
00000190: 1827 7cbc d6ca 49bc 7486 af3c 34d5 04bd
000001a0: 3bac 763c a8e4 d63c be63 5a3c fe24 0dbd
000001b0: 945a 48bd 38cb 25bd 7de2 9c3c 2bb7 7dbc
000001c0: 61ae 17bd 96af ec3c 5058 083d ba6c 083d
000001d0: a347 c83c 8359 393d 7394 89bc 8b55 7b3b
000001e0: 54cb 0bbb 8ace c7ba ba5f 95b9 082c 113d
000001f0: 34cc 163d 5f8c 8bba 24f9 ef3c f48f 0dbc
0.0030749203 0.035109933 -0.0025986256 -0.044561766 -0.0012461907 -0.03162723 -0.02288004 0.013586029
-0.01442112 -0.0023294373 0.042186692 0.019522397 -0.017261816 -0.017921219 0.035189375 -0.037208185
0.037504032 0.013384791 0.03687487 0.0031442808 -0.0063209943 0.0024137998 -0.0022481524 -0.0013795865
-0.01626132 -0.015600706 -0.036076568 -0.019875696 -0.0015510339 0.01721346 0.017985795 -0.020830266
-0.0205177 -0.03740198 0.016036032 -0.013516688 -0.02372384 0.003539137 0.00805724 0.030925564
0.011479336 -0.011991479 -0.0094517805 -0.020303998 0.022281114 -0.023612043 -0.011290825 0.028747223
0.027870955 0.03634014 0.0022529585 0.014538477 -0.026994096 0.03684059 0.03654585 -0.03065917
-0.01501145 -0.026868029 -0.03523097 0.008297874 0.027892727 0.034425166 -0.008561522 0.009101224
-0.012510078 0.03806397 0.0298558 -0.010990711 -0.037467808 0.007013565 0.021993857 -0.028353846
0.018473152 -0.038575474 -0.038585134 -0.032939877 0.010054834 -0.021481214 -0.0006055989 -0.036053553
-0.03531492 0.031953026 -0.03558086 -0.034303676 -0.04180395 0.032508414 -0.035701957 -0.041924324
0.024575485 -0.01162524 0.01568882 -0.032620892 0.016205478 0.034816373 -0.018732656 -0.0067197555
-0.021456229 0.019199846 -0.020952148 -0.041065246 -0.01539018 -0.012316426 0.021426417 -0.03242989
0.015055711 0.026232079 0.013329444 -0.034459107 -0.048914507 -0.040477008 0.019150967 -0.015485565
-0.037031535 0.02889232 0.033287346 0.033306815 0.024448222 0.04525138 -0.016794419 0.0038350548
-0.002133091 -0.0015244049 -0.00028490816 0.035442382 0.036815837 -0.0010646692 0.029293604 -0.008640278

bn3.weight f4 [128]
00000000: 4335 823f 110a 803f 30a2 863f 3e69 793f
00000010: e0d8 883f cf40 883f 3e0d 843f 750b 843f
00000020: acaa 7b3f 7955 7c3f baf4 7c3f bee8 883f
00000030: bf97 853f 6c56 873f 58a0 8d3f 0263 8c3f
00000040: 3c96 873f 6d8f 853f 0950 873f f868 7b3f
00000050: 7503 833f 661a 853f 6098 893f d43d 823f
00000060: 822a 853f b6d1 883f ae68 873f 4dda 883f
00000070: 655d 853f a8f1 753f 0f6e 823f 1f42 903f
00000080: fd62 803f 18a2 863f f922 8c3f 60a8 853f
00000090: c7f7 763f 60ad 7c3f 1ba8 853f e364 853f
000000a0: 7424 823f e629 8e3f 0093 813f f60a 8d3f
000000b0: 86d9 863f 9b43 843f 58d0 843f a07e 7b3f
000000c0: abf1 833f 54b1 853f 2187 833f ff72 833f
000000d0: c21a 833f dd04 7a3f 9454 933f 78b5 853f
000000e0: 6b29 813f 5403 773f 4d70 843f 2280 8b3f
000000f0: 669b 783f a947 773f 14b1 883f 6328 7d3f
00000100: 8e15 863f c5ea 8c3f 30fe 873f 4fd8 873f
00000110: db47 773f 4c72 853f f065 833f 900b 813f
00000120: 4e3d 833f ca71 7e3f 17da 843f 1e99 873f
00000130: 42a4 863f 13c7 873f 50c2 853f 0985 853f
00000140: bc60 863f fc03 823f eede 853f adac 823f
00000150: 8d49 7c3f da86 853f 4bfc 803f 0f91 863f
00000160: 2b54 853f c270 823f d568 7a3f 259b 833f
00000170: 77f6 7e3f 86ed 863f 2590 783f bb4a 773f
00000180: 56c7 773f a4ad 853f f40a 783f 21e1 853f
00000190: 70cc 883f 67ce 873f 0a3a 7e3f 5653 7e3f
000001a0: 0e10 833f ef7d 813f 4958 883f 3800 7a3f
000001b0: 9936 853f d5dd 873f d4f9 783f 8aff 813f
000001c0: eb90 873f fce1 873f a736 863f 4b53 8a3f
000001d0: 6a83 7b3f cdf0 863f 3a3b 803f 5530 843f
000001e0: 465a 863f d74d 853f 53cd 863f 29d0 853f
000001f0: 8bab 8d3f 25a5 783f 95bf 7a3f 3356 873f
1.0172504 1.0003072 1.0518246 0.9742621 1.0691185 1.0644778 1.0316541 1.0315996
0.983073 0.9856792 0.98810923 1.0696027 1.0436934 1.0573249 1.1064558 1.0967715
1.0592723 1.0434395 1.05713 0.98207045 1.023543 1.0398681 1.0749626 1.0175118
1.0403597 1.0688999 1.0578821 1.069162 1.0419127 0.96071863 1.0189837 1.1270179
1.0030209 1.0518217 1.0948173 1.0442009 0.9647183 0.9870205 1.0441927 1.0421413
1.0167375 1.1106536 1.0122986 1.101897 1.0535133 1.0333132 1.0376081 0.9824009
1.0308126 1.0444741 1.0275613 1.0269469 1.0242541 0.9766367 1.1510186 1.0446005
1.0090765 0.96489453 1.0346771 1.0898478 0.9711212 0.9659372 1.067904 0.9888975
1.0475328 1.1009146 1.0624447 1.0612887 0.9659402 1.0425506 1.0265484 1.0081654
1.0253084 0.9939238 1.0379056 1.0593603 1.0518878 1.0607628 1.0449924 1.0431224
1.0498271 1.0157466 1.0458658 1.0208946 0.9854973 1.0431778 1.0076994 1.0513018
1.0416311 1.0190661 0.9781621 1.0281721 0.99594826 1.0541236 0.9709495 0.96598405
0.9678854 1.0443616 0.96891713 1.0459329 1.0687389 1.0609864 0.9930731 0.9934591
1.0239275 1.0116557 1.0651942 0.97656584 1.0407287 1.0614573 0.9725621 1.0156109
1.05911 1.061584 1.0485429 1.0806669 0.98247397 1.0542237 1.0018075 1.032725
1.0496299 1.041438 1.053141 1.045415 1.1067976 0.9712699 0.9794858 1.0573181

bn3.bias f4 [128]
00000000: 31da 6ab9 51b8 f9bc 486c 053d 57a4 e5bc
00000010: 18a4 0d3d 5973 343d 2d02 7b3b d632 3f3c
00000020: fde9 b6bc 68f4 73bc 5db6 3fbd c33f 7a3d
00000030: 9823 413d ba35 343d d4e0 953d 7b55 803d
00000040: 0fa3 283d ac4c 163c db6b 423d 757b c1bc
00000050: 0ba1 053c 6e4c b03c 9f35 623d 0e85 933a
00000060: 9963 543c 43c7 6f3d f637 423d 8738 033d
00000070: fef2 223d 6af7 23bd 3297 48b9 9ddc 983d
00000080: 4926 e1bb 9eb6 1f3d cdac 4a3d c288 f03c
00000090: c0bd 15bd 1aec cabc db7a 903b 0297 a23c
000000a0: 4b96 24bc 4e22 943d 092b 18bc bf90 883d
000000b0: fff6 393d f1fa 273c 0166 be3c ca02 c3bc
000000c0: 5354 3e3c bc06 163d f247 823c 86d2 00bb
000000d0: ef41 983c 73de c4bc 88e3 bf3d efe5 243d
000000e0: 64c0 ffba 9db2 16bd 1f4e 0e3d 1622 873d
000000f0: b330 08bd aaea 03bd 4808 5e3d a9d4 6cbc
00000100: 988e 093d 0aef 903d 19a6 603d 2d3c 353d
00000110: c4da 0cbd af7c 1e3d aac8 eb39 ee01 c6ba
00000120: dfe6 81bb fc2c 39bc 1c47 1c3d 2ab9 3a3d
00000130: 90d8 fa3c 9160 e73c 396f f13c 03b3 ac3c
00000140: a469 053d 3cb9 b7ba 43dd 153d 5a35 17bc
00000150: 27e3 d2bc 163b 7d3c 31af 81bc 3f9a 8d3c
00000160: f335 c93c ba7e b03b 621c cebc 2ea3 22bb
00000170: 500f 28bd b35a 2b3d 251e 3ebd e852 1abd
00000180: a79b 12bd d45c c73c 3ea0 08bd 375b 523c
00000190: 5bc7 4c3d e5ec 443d 2dda 60bc ee0a 8cbc
000001a0: 89f3 b33b 6411 efbb a562 803d c2ec debc
000001b0: 14ea 983c af4c 303d e5b3 efbc dc4e ee3a
000001c0: 799b 3f3d 5994 353d f439 143d cc18 8e3d
000001d0: 2e00 c9bc b49a 193d 04c2 b6bb 242e bb3b
000001e0: dd36 423c f741 bd3c f593 443d 1d85 cc3c
000001f0: 7c28 893d efdc 01bd 8a17 d5bc b8ad e93c
-0.00022397262 -0.030483397 0.03257397 -0.028032465 0.03458032 0.044055317 0.0038300857 0.011669835
-0.022328371 -0.014889814 -0.046804775 0.061095964 0.047153085 0.04399655 0.07318273 0.06266304
0.04117113 0.009173553 0.04746614 -0.02361844 0.008156071 0.02152082 0.05522692 0.0011254863
0.012963199 0.05853964 0.04741665 0.03203633 0.039782517 -0.040030874 -0.00019129811 0.07463954
-0.006871019 0.038992517 0.049481202 0.029362086 -0.036557913 -0.024770785 0.0044091768 0.019847397
-0.010045598 0.072331056 -0.009287604 0.06668233 0.04540157 0.0102527 0.023241999 -0.02380504
0.011616784 0.036627516 0.015903447 -0.0019656732 0.018586127 -0.024031853 0.0936957 0.040258344
-0.0019512293 -0.036791433 0.03474247 0.06598298 -0.03324957 -0.032206215 0.054207116 -0.014454999
0.033583254 0.07076843 0.054845903 0.04424684 -0.03438832 0.038693126 0.000449722 -0.0015106776
-0.0039642896 -0.011302229 0.038153753 0.045586742 0.030620843 0.028244289 0.02947198 0.021081453
0.03257145 -0.0014016996 0.036587965 -0.009229029 -0.02574308 0.015455982 -0.015830608 0.017285464
0.024561858 0.0053862007 -0.025160018 -0.00248165 -0.04103023 0.041834544 -0.046415467 -0.03767672
-0.035792973 0.024336256 -0.033355944 0.01283913 0.049994808 0.048077483 -0.013723892 -0.017095055
0.005491678 -0.0072957743 0.06268815 -0.027212504 0.018666305 0.04304188 -0.029260585 0.0018181461
0.04677913 0.04433093 0.03618808 0.069383234 -0.024536218 0.037501052 -0.0055773277 0.0057122875
0.011853901 0.023102744 0.047992665 0.024965817 0.06697175 -0.03170484 -0.0260122 0.028525218

bn3.running_mean f4 [128]
00000000: 6037 213f 3d59 fcbd 9c3c 723e 82e0 983d
00000010: 6dc1 9abd ef60 92bf bc3f 4abf 2e52 d63c
00000020: c470 1e3f 7e6f 5bbf ae5b da3e a213 f5be
00000030: 2165 f6be 8394 1abe 1c8e 173d 5640 62bf
00000040: e53c a3bf 2ce0 273e 7a89 27be 9ce9 9a3e
00000050: 5465 98be a83a 8abf 7b18 2a3e a580 b03e
00000060: 1fb2 59bf 4300 f0be 6dbd 223f 8ac4 193f
00000070: 84fc 4a3d 4c17 d6be 6638 e8bd bbef f63d
00000080: f1af 64bf a1da 9dbf 6acc 443e 19f9 94bf
00000090: c624 bc3e 6a20 f0bc 9407 0a3f 18af 97bf
000000a0: 65b1 54bf 9526 8fbd 908f 443e bb47 91be
000000b0: 9e1c d2bf 77c2 043f 28cf 3dbf 9c1e 983e
000000c0: 5782 a03e 7599 7dbf 6a37 08bf 76ec ae3e
000000d0: 6f7c 443b 516f 0d3f bd79 1a3e dfe8 81bf
000000e0: 6f21 673b ad16 ab3e 469e 22bf 98ce 3c3d
000000f0: 3fb2 a43e 4375 a23e 96d2 50bf 386d 583e
00000100: 2a16 0dbe e31c 24be 70ff c1be 178b 75be
00000110: 3e47 053f 205f 8ebf 8c80 343f 5852 953e
00000120: 0459 9ebd ed78 dbbe f4ab acbe 2e28 31be
00000130: 68a6 36bf 6653 5abf 9c33 293e 087f 46bf
00000140: 7ff3 91be 4ef7 9b3e f3d3 a0bf a247 50bf
00000150: 8617 d73e bc37 f33d 9647 da3e beb0 273e
00000160: d064 1abf 39f8 4dbe 874a f93e 1080 0ebf
00000170: 3fc4 e93e 8cae edbe 7640 21bf 76c9 e4bd
00000180: 1ca8 45bd 4718 ae3e 6cc0 26be 62f9 0cbf
00000190: 6d5e 1ebf 9b04 b03e da98 063e f147 773e
000001a0: 5d89 3d3e 1d6b d63e fcc0 b9bd 9d70 af3e
000001b0: 5db8 52bf 5ffd 2dbf 8f2d d1be 5399 013e
000001c0: e5f6 9fbf d7c7 5cbf 6388 2b3e 115a 92be
000001d0: bf59 983e 5d08 78bf 2b36 c3bd 87f2 873c
000001e0: 01c2 733e e1b5 25bf c90d 51bf dca2 69bf
000001f0: 1832 943d c7e4 2a3f 89f7 213e da46 2abf
0.6297512 -0.12321708 0.23655933 0.074646965 -0.07556424 -1.1435832 -0.790035 0.026162233
0.61890817 -0.85717 0.4264807 -0.4786654 -0.4812403 -0.15095715 0.03700076 -0.8837942
-1.2752959 0.16394109 -0.16361037 0.30256355 -0.29764807 -1.079915 0.16610901 0.34473148
-0.85037416 -0.468752 0.6357029 0.6006552 0.049557224 -0.4181465 -0.11338882 0.12057444
-0.89330965 -1.2332345 0.19218603 -1.1638519 0.36746806 -0.029312331 0.53917813 -1.1850309
-0.8308318 -0.06989781 0.1919539 -0.28375039 -1.6414983 0.5185923 -0.7414422 0.29710853
0.3134944 -0.9906228 -0.53209555 0.3416478 0.0029981395 0.5524798 0.15085502 -1.0149192
0.003526773 0.33415738 -0.63522756 0.04609546 0.3216724 0.3173009 -0.8157133 0.21135414
-0.13777986 -0.16026644 -0.37890196 -0.2397884 0.5206183 -1.112278 0.70508647 0.29164386
-0.07731822 -0.42865697 -0.3372494 -0.17300484 -0.71347666 -0.85283506 0.16523594 -0.77537584
-0.28506085 0.30462116 -1.2564682 -0.81359303 0.42010134 0.11875865 0.4263274 0.16376016
-0.6031008 -0.2011422 0.48689672 -0.5566416 0.45657536 -0.4642223 -0.62988985 -0.11171238
-0.048256025 0.34002897 -0.1628434 -0.5506803 -0.6186283 0.34378514 0.13144246 0.24148537
0.18509431 0.41878596 -0.09070012 0.34265605 -0.82312566 -0.6796474 -0.4085507 0.12656145
-1.2497221 -0.8624243 0.16751246 -0.2858434 0.2975597 -0.9688776 -0.09531816 0.016595138
0.23804475 -0.6473065 -0.8166166 -0.9126413 0.07236117 0.66755337 0.15817083 -0.6651436

bn3.running_var f4 [128]
00000000: e027 5e3e b8c7 a23e 0d7d b83e 1c7e 513e
00000010: ac76 eb3e c7b0 da3e 983c a93e 2b35 ec3e
00000020: f58f 983e 10f1 e33e dd4a 7e3e 2d4b 1b3f
00000030: b403 933f cc85 103f 196e 433f 5d22 343f
00000040: f788 0c3f c02f 503f 807c ba3e b2e8 5c3e
00000050: f779 5a3e 0c36 0b3f 789c 513f 6cf5 e33e
00000060: 3c38 a43e ad6f b03e fada f83e 73cc 123f
00000070: f877 4f3f 5455 7f3e 6155 cd3e 3e51 113f
00000080: d83a c93e ba0a e83e ef40 fa3e 1c9a c23e
00000090: 2d63 3a3e b3da b63e cced e83e 6d0e 313f
000000a0: 3616 153f fa40 2e3f 672f 043f 8b76 743f
000000b0: cf75 2b3f f5c0 083f da03 863e d3d9 b93e
000000c0: 6191 a93e 4435 963e edae ab3e 829c d73e
000000d0: fdc3 dc3e 964f 113e 012f 423f 2b21 523e
000000e0: c101 e63e 6ed9 073e 2daf 033f fa75 113f
000000f0: 0efa 463e 5ff0 353e 85e5 043f eb34 c23e
00000100: 709e 583f 3ea8 2c3f ec19 9c3f 7aa3 183f
00000110: c30a b93d 6eed fe3e 4f5f 003f b4bd 153e
00000120: 8a62 3f3f e0a3 ea3e 789f 433f 70d5 493e
00000130: 83f8 af3e 0801 de3e 62b7 e63e 8038 a23e
00000140: 83b5 9e3e bbea dd3e b65f d43e 2ac6 993e
00000150: 479a cf3e 099e 4e3e cb36 b53e 7ed5 173f
00000160: 8ed3 aa3e 6d79 143f 9cb9 183e 3675 a83e
00000170: c4c1 b33e 00fb c23e c0c7 cc3e 873b 4e3e
00000180: 8f78 273e 7adf 773e 75d8 173e 2abe 893e
00000190: 4d2b d23e 281d 293f 2611 e83e c485 403e
000001a0: c03a 863e 9512 913e c025 f03e 76c3 4c3e
000001b0: d3ce 133f 37b0 a23e b497 1d3e bf70 e53e
000001c0: 0efb d63e 6b63 cb3e b5d3 643e 4d4e 033f
000001d0: 3376 593e dc07 8f3e addb 363f 21ec 603f
000001e0: 9322 eb3e eb6f 963e 4451 a33f 6fd8 783e
000001f0: d240 5a3f d4fe 163e 3e50 8d3e 6e18 083f
0.21694899 0.31792998 0.36032906 0.20458263 0.45988977 0.42712995 0.33054042 0.46134314
0.2979733 0.44519854 0.24833246 0.60661584 1.1485505 0.5645416 0.7633987 0.70364934
0.5489649 0.8132286 0.3642311 0.21573141 0.21335588 0.54379344 0.8187938 0.4452318
0.32074153 0.34460202 0.48604566 0.57343215 0.8104243 0.24934894 0.401042 0.5676459
0.39302707 0.45320684 0.48877665 0.380082 0.18201895 0.3571373 0.45493925 0.69162637
0.58237016 0.68067896 0.5163483 0.9549338 0.66976637 0.5341943 0.26174814 0.36299
0.33118728 0.29337513 0.33531895 0.42111593 0.43118277 0.14190516 0.7585297 0.20520465
0.44923213 0.13266537 0.5143917 0.5682064 0.19431326 0.17767476 0.5191272 0.37930998
0.84616756 0.6744422 1.2195411 0.59624445 0.09035256 0.4979052 0.5014543 0.14623147
0.74759734 0.45828152 0.76415205 0.19710326 0.34369287 0.43360162 0.45061785 0.3168373
0.30997857 0.43343148 0.41479272 0.30034 0.40547392 0.20177473 0.35393366 0.5931014
0.33364528 0.5799778 0.14914554 0.32901925 0.3510877 0.38082123 0.39996147 0.20139895
0.16354583 0.24206343 0.14828666 0.26902896 0.4104866 0.66060114 0.45325583 0.18801028
0.26216698 0.2833449 0.469038 0.19996437 0.57737464 0.31775066 0.15389901 0.4481258
0.41988415 0.39724287 0.22346385 0.5129135 0.21236496 0.27935684 0.7142895 0.87860304
0.45924816 0.29382262 1.2759175 0.24301313 0.8525516 0.14745647 0.27600282 0.53162277
